…
[layer]: Final representation of two classes of Network	[shape]: [None, 100] 
[33m [Memory] Total Memory Use: 515.1797 MB 	 Resident: 527544 Shared: 0 UnshareData: 0 UnshareStack: 0 [0m
[layer]: Dense	[shape]: [None, 1] 
[33m [Memory] Total Memory Use: 515.1797 MB 	 Resident: 527544 Shared: 0 UnshareData: 0 UnshareStack: 0 [0m
__________________________________________________________________________________________________
Layer (type)                    Output Shape         Param #     Connected to                     
==================================================================================================
query (InputLayer)              (None, 10)           0                                            
__________________________________________________________________________________________________
doc (InputLayer)                (None, 40)           0                                            
__________________________________________________________________________________________________
embedding_1 (Embedding)         multiple             933900      query[0][0]                      
                                                                 doc[0][0]                        
__________________________________________________________________________________________________
bidirectional_1 (Bidirectional) multiple             30300       embedding_1[0][0]                
                                                                 embedding_1[1][0]                
__________________________________________________________________________________________________
lambda_1 (Lambda)               (None, 100)          0           bidirectional_1[0][0]            
__________________________________________________________________________________________________
lambda_2 (Lambda)               (None, 100)          0           bidirectional_1[1][0]            
__________________________________________________________________________________________________
concatenate_5 (Concatenate)     (None, 200)          0           lambda_1[0][0]                   
                                                                 lambda_2[0][0]                   
__________________________________________________________________________________________________
dense_1 (Dense)                 (None, 100)          20100       concatenate_5[0][0]              
__________________________________________________________________________________________________
dot_1 (Dot)                     (None, 10)           0           bidirectional_1[0][0]            
                                                                 dense_1[0][0]                    
__________________________________________________________________________________________________
dot_2 (Dot)                     (None, 40)           0           bidirectional_1[1][0]            
                                                                 dense_1[0][0]                    
__________________________________________________________________________________________________
permute_1 (Permute)             (None, 100, 10)      0           bidirectional_1[0][0]            
__________________________________________________________________________________________________
activation_1 (Activation)       (None, 10)           0           dot_1[0][0]                      
__________________________________________________________________________________________________
permute_2 (Permute)             (None, 100, 40)      0           bidirectional_1[1][0]            
__________________________________________________________________________________________________
activation_2 (Activation)       (None, 40)           0           dot_2[0][0]                      
__________________________________________________________________________________________________
multiply_1 (Multiply)           (None, 100, 10)      0           permute_1[0][0]                  
                                                                 activation_1[0][0]               
__________________________________________________________________________________________________
multiply_2 (Multiply)           (None, 100, 40)      0           permute_2[0][0]                  
                                                                 activation_2[0][0]               
__________________________________________________________________________________________________
permute_3 (Permute)             (None, 10, 100)      0           multiply_1[0][0]                 
__________________________________________________________________________________________________
permute_4 (Permute)             (None, 40, 100)      0           multiply_2[0][0]                 
__________________________________________________________________________________________________
lambda_3 (Lambda)               (None, 100)          0           permute_3[0][0]                  
__________________________________________________________________________________________________
lambda_4 (Lambda)               (None, 100)          0           permute_4[0][0]                  
__________________________________________________________________________________________________
lambda_5 (Lambda)               (None, 30)           0           embedding_1[0][0]                
__________________________________________________________________________________________________
lambda_6 (Lambda)               (None, 30)           0           embedding_1[1][0]                
__________________________________________________________________________________________________
concatenate_6 (Concatenate)     (None, 200)          0           lambda_3[0][0]                   
                                                                 lambda_4[0][0]                   
__________________________________________________________________________________________________
concatenate_7 (Concatenate)     (None, 60)           0           lambda_5[0][0]                   
                                                                 lambda_6[0][0]                   
__________________________________________________________________________________________________
dense_2 (Dense)                 (None, 100)          20100       concatenate_6[0][0]              
__________________________________________________________________________________________________
dense_7 (Dense)                 (None, 100)          6100        concatenate_7[0][0]              
__________________________________________________________________________________________________
dropout_1 (Dropout)             (None, 100)          0           dense_2[0][0]                    
__________________________________________________________________________________________________
batch_normalization_2 (BatchNor (None, 100)          400         dense_7[0][0]                    
__________________________________________________________________________________________________
batch_normalization_1 (BatchNor (None, 100)          400         dropout_1[0][0]                  
__________________________________________________________________________________________________
dropout_2 (Dropout)             (None, 100)          0           batch_normalization_2[0][0]      
__________________________________________________________________________________________________
concatenate_8 (Concatenate)     (None, 200)          0           batch_normalization_1[0][0]      
                                                                 dropout_2[0][0]                  
__________________________________________________________________________________________________
dense_8 (Dense)                 (None, 100)          20100       concatenate_8[0][0]              
__________________________________________________________________________________________________
dropout_3 (Dropout)       2017-12-15 10:59:34.555481: I tensorflow/core/common_runtime/gpu/pool_allocator.cc:247] PoolAllocator: After 5386 get requests, put_count=3677 evicted_count=1000 eviction_rate=0.271961 and unsatisfied allocation rate=0.521537
2017-12-15 10:59:34.555529: I tensorflow/core/common_runtime/gpu/pool_allocator.cc:259] Raising pool_size_limit_ from 100 to 110
…
