…
[layer]: Dense	[shape]: [None, 1] 
[33m [Memory] Total Memory Use: 539.1797 MB 	 Resident: 552120 Shared: 0 UnshareData: 0 UnshareStack: 0 [0m
[layer]: Add	[shape]: [None, 1] 
[33m [Memory] Total Memory Use: 539.1797 MB 	 Resident: 552120 Shared: 0 UnshareData: 0 UnshareStack: 0 [0m
__________________________________________________________________________________________________
Layer (type)                    Output Shape         Param #     Connected to                     
==================================================================================================
query (InputLayer)              (None, 20)           0                                            
__________________________________________________________________________________________________
doc (InputLayer)                (None, 40)           0                                            
__________________________________________________________________________________________________
embedding_1 (Embedding)         multiple             933900      query[0][0]                      
                                                                 doc[0][0]                        
__________________________________________________________________________________________________
conv1d_2 (Conv1D)               (None, 20, 32)       4832        embedding_1[0][0]                
__________________________________________________________________________________________________
dropout_3 (Dropout)             (None, 20, 32)       0           conv1d_2[0][0]                   
__________________________________________________________________________________________________
conv1d_3 (Conv1D)               (None, 40, 32)       4832        embedding_1[1][0]                
__________________________________________________________________________________________________
max_pooling1d_1 (MaxPooling1D)  (None, 1, 32)        0           dropout_3[0][0]                  
__________________________________________________________________________________________________
dropout_4 (Dropout)             (None, 40, 32)       0           conv1d_3[0][0]                   
__________________________________________________________________________________________________
reshape_2 (Reshape)             (None, 32)           0           max_pooling1d_1[0][0]            
__________________________________________________________________________________________________
max_pooling1d_2 (MaxPooling1D)  (None, 13, 32)       0           dropout_4[0][0]                  
__________________________________________________________________________________________________
lambda_1 (Lambda)               (None, 20, 40)       0           query[0][0]                      
                                                                 doc[0][0]                        
__________________________________________________________________________________________________
dense_3 (Dense)                 (None, 32)           1056        reshape_2[0][0]                  
__________________________________________________________________________________________________
conv1d_4 (Conv1D)               (None, 13, 32)       1056        max_pooling1d_2[0][0]            
__________________________________________________________________________________________________
conv1d_1 (Conv1D)               (None, 20, 32)       51232       lambda_1[0][0]                   
__________________________________________________________________________________________________
lambda_2 (Lambda)               (None, 1, 32)        0           dense_3[0][0]                    
__________________________________________________________________________________________________
dropout_5 (Dropout)             (None, 13, 32)       0           conv1d_4[0][0]                   
__________________________________________________________________________________________________
dropout_1 (Dropout)             (None, 20, 32)       0           conv1d_1[0][0]                   
__________________________________________________________________________________________________
lambda_3 (Lambda)               (None, 13, 32)       0           lambda_2[0][0]                   
                                                                 dropout_5[0][0]                  
__________________________________________________________________________________________________
reshape_1 (Reshape)             (None, 640)          0           dropout_1[0][0]                  
__________________________________________________________________________________________________
reshape_3 (Reshape)             (None, 416)          0           lambda_3[0][0]                   
__________________________________________________________________________________________________
dense_1 (Dense)                 (None, 30)           19230       reshape_1[0][0]                  
__________________________________________________________________________________________________
dense_4 (Dense)                 (None, 30)           12510       reshape_3[0][0]                  
__________________________________________________________________________________________________
dropout_2 (Dropout)             (None, 30)           0           dense_1[0][0]                    
__________________________________________________________________________________________________
dropout_6 (Dropout)             (None, 30)           0           dense_4[0][0]                    
__________________________________________________________________________________________________
dense_2 (Dense)                 (None, 1)            31          dropout_2[0][0]                  
__________________________________________________________________________________________________
dense_5 (Dense)                 (None, 1)            31          dropout_6[0][0]                  
__________________________________________________________________________________________________
add_1 (Add)                     (None, 1)            0           dense_2[0][0]                    
                                                                 dense_5[0][0]                    
==================================================================================================
Total params: 1,028,710
Trainable params: 94,810
Non-trainable params: 933,900
__________________________________________________________________________________________________
…
