…
[layer]: Reshape	[shape]: [None, 10] 
[33m [Memory] Total Memory Use: 759.2227 MB 	 Resident: 777444 Shared: 0 UnshareData: 0 UnshareStack: 0 [0m
[layer]: Dense	[shape]: [None, 1] 
[33m [Memory] Total Memory Use: 759.2227 MB 	 Resident: 777444 Shared: 0 UnshareData: 0 UnshareStack: 0 [0m
__________________________________________________________________________________________________
Layer (type)                    Output Shape         Param #     Connected to                     
==================================================================================================
doc (InputLayer)                (None, 10, 60)       0                                            
__________________________________________________________________________________________________
dropout_1 (Dropout)             (None, 10, 60)       0           doc[0][0]                        
__________________________________________________________________________________________________
dense_2 (Dense)                 (None, 10, 20)       1220        dropout_1[0][0]                  
__________________________________________________________________________________________________
query (InputLayer)              (None, 10)           0                                            
__________________________________________________________________________________________________
activation_1 (Activation)       (None, 10, 20)       0           dense_2[0][0]                    
__________________________________________________________________________________________________
embedding_1 (Embedding)         (None, 10, 300)      5603400     query[0][0]                      
__________________________________________________________________________________________________
dense_3 (Dense)                 (None, 10, 1)        21          activation_1[0][0]               
__________________________________________________________________________________________________
dense_1 (Dense)                 (None, 10, 1)        300         embedding_1[0][0]                
__________________________________________________________________________________________________
permute_1 (Permute)             (None, 1, 10)        0           dense_3[0][0]                    
__________________________________________________________________________________________________
lambda_1 (Lambda)               (None, 10)           0           dense_1[0][0]                    
__________________________________________________________________________________________________
reshape_1 (Reshape)             (None, 10)           0           permute_1[0][0]                  
__________________________________________________________________________________________________
reshape_2 (Reshape)             (None, 10)           0           lambda_1[0][0]                   
__________________________________________________________________________________________________
dot_1 (Dot)                     (None, 1)            0           reshape_1[0][0]                  
                                                                 reshape_2[0][0]                  
==================================================================================================
Total params: 5,604,941
Trainable params: 1,541
Non-trainable params: 5,603,400
__________________________________________________________________________________________________
…
