Using TensorFlow backend.
/home/irlab0/Research/MatchZoo
/home/irlab0
/home/irlab0/Research/MatchZoo
/home/irlab0/Research/MatchZoo
Building the ELSTMAttention...
__________________________________________________________________________________________________
Layer (type)                    Output Shape         Param #     Connected to                     
==================================================================================================
input_1 (InputLayer)            (None, 100)          0                                            
__________________________________________________________________________________________________
input_2 (InputLayer)            (None, 100)          0                                            
__________________________________________________________________________________________________
embedding_1 (Embedding)         (None, 100, 200)     2505200     input_1[0][0]                    
                                                                 input_2[0][0]                    
__________________________________________________________________________________________________
bidirectional_1 (Bidirectional) (None, 100, 400)     641600      embedding_1[0][0]                
                                                                 embedding_1[1][0]                
__________________________________________________________________________________________________
lambda_1 (Lambda)               (None, 400)          0           bidirectional_1[0][0]            
__________________________________________________________________________________________________
lambda_2 (Lambda)               (None, 400)          0           bidirectional_1[1][0]            
__________________________________________________________________________________________________
concatenate_5 (Concatenate)     (None, 800)          0           lambda_1[0][0]                   
                                                                 lambda_2[0][0]                   
__________________________________________________________________________________________________
dense_1 (Dense)                 (None, 400)          320400      concatenate_5[0][0]              
__________________________________________________________________________________________________
dot_1 (Dot)                     (None, 100)          0           bidirectional_1[0][0]            
                                                                 dense_1[0][0]                    
__________________________________________________________________________________________________
dot_2 (Dot)                     (None, 100)          0           bidirectional_1[1][0]            
                                                                 dense_1[0][0]                    
__________________________________________________________________________________________________
permute_1 (Permute)             (None, 400, 100)     0           bidirectional_1[0][0]            
__________________________________________________________________________________________________
activation_1 (Activation)       (None, 100)          0           dot_1[0][0]                      
__________________________________________________________________________________________________
permute_2 (Permute)             (None, 400, 100)     0           bidirectional_1[1][0]            
__________________________________________________________________________________________________
activation_2 (Activation)       (None, 100)          0           dot_2[0][0]                      
__________________________________________________________________________________________________
multiply_1 (Multiply)           (None, 400, 100)     0           permute_1[0][0]                  
                                                                 activation_1[0][0]               
__________________________________________________________________________________________________
multiply_2 (Multiply)           (None, 400, 100)     0           permute_2[0][0]                  2018-04-14 14:31:24.187570: W tensorflow/core/platform/cpu_feature_guard.cc:45] The TensorFlow library wasn't compiled to use SSE4.1 instructions, but these are available on your machine and could speed up CPU computations.
2018-04-14 14:31:24.187607: W tensorflow/core/platform/cpu_feature_guard.cc:45] The TensorFlow library wasn't compiled to use SSE4.2 instructions, but these are available on your machine and could speed up CPU computations.
…
NumAllocs:                     585
MaxAllocSize:           3188263680

2018-04-14 14:32:01.636024: W tensorflow/core/common_runtime/bfc_allocator.cc:277] ******************************xxxxxxxxxxxxxxxxxxxxxxxxxxx****************************xxxxxxxxxxxxxxx
2018-04-14 14:32:01.636037: W tensorflow/core/framework/op_kernel.cc:1158] Resource exhausted: OOM when allocating tensor with shape[20050,200]

                                                                 activation_2[0][0]               
__________________________________________________________________________________________________
permute_3 (Permute)             (None, 100, 400)     0           multiply_1[0][0]                 
__________________________________________________________________________________________________
permute_4 (Permute)             (None, 100, 400)     0           multiply_2[0][0]                 
__________________________________________________________________________________________________
lambda_3 (Lambda)               (None, 400)          0           permute_3[0][0]                  
__________________________________________________________________________________________________
lambda_4 (Lambda)               (None, 400)          0           permute_4[0][0]                  
__________________________________________________________________________________________________
concatenate_6 (Concatenate)     (None, 800)          0           lambda_3[0][0]                   
                                                                 lambda_4[0][0]                   
__________________________________________________________________________________________________
dense_2 (Dense)                 (None, 400)          320400      concatenate_6[0][0]              
__________________________________________________________________________________________________
dropout_1 (Dropout)             (None, 400)          0           dense_2[0][0]                    
__________________________________________________________________________________________________
batch_normalization_1 (BatchNor (None, 400)          1600        dropout_1[0][0]                  
__________________________________________________________________________________________________
dense_3 (Dense)                 (None, 200)          80200       batch_normalization_1[0][0]      
__________________________________________________________________________________________________
dropout_2 (Dropout)             (None, 200)          0           dense_3[0][0]                    
__________________________________________________________________________________________________
batch_normalization_2 (BatchNor (None, 200)          800         dropout_2[0][0]                  
__________________________________________________________________________________________________
dense_4 (Dense)                 (None, 2)            402         batch_normalization_2[0][0]      
==================================================================================================
Total params: 3,870,602
Trainable params: 3,869,402
Non-trainable params: 1,200
__________________________________________________________________________________________________
bst_model_path: ./models/ELSTMAttentionSat_Apr_14_14:31:09_2018_131315.h5
This is the 0 loop.
…
